…
2021-12-12 01:48:56.602894: W tensorflow/core/framework/cpu_allocator_impl.cc:82] Allocation of 8630370000 exceeds 10% of free system memory.
2021-12-12 01:48:59.250244: W tensorflow/core/framework/cpu_allocator_impl.cc:82] Allocation of 8630370000 exceeds 10% of free system memory.
2021-12-12 01:49:03.231989: I tensorflow/stream_executor/cuda/cuda_dnn.cc:366] Loaded cuDNN version 8202
Model: "sequential"
_________________________________________________________________
 Layer (type)                Output Shape              Param #
=================================================================
 conv2d (Conv2D)             (None, 212, 50, 5)        85

 max_pooling2d (MaxPooling2D  (None, 105, 24, 5)       0
 )

 dropout (Dropout)           (None, 105, 24, 5)        0

 conv2d_1 (Conv2D)           (None, 105, 24, 5)        405

 max_pooling2d_1 (MaxPooling  (None, 51, 11, 5)        0
 2D)

 dropout_1 (Dropout)         (None, 51, 11, 5)         0

 conv2d_2 (Conv2D)           (None, 51, 11, 5)         405

 max_pooling2d_2 (MaxPooling  (None, 24, 4, 5)         0
 2D)

 dropout_2 (Dropout)         (None, 24, 4, 5)          0

 conv2d_3 (Conv2D)           (None, 24, 4, 5)          405

 max_pooling2d_3 (MaxPooling  (None, 11, 1, 5)         0
 2D)

 batch_normalization (BatchN  (None, 11, 1, 5)         20
 ormalization)

 flatten (Flatten)           (None, 55)                0

 dense (Dense)               (None, 50)                2800

 dense_1 (Dense)             (None, 25)                1275

 dense_2 (Dense)             (None, 1)                 26

=================================================================
Total params: 5,421
Trainable params: 5,411
Non-trainable params: 10
_________________________________________________________________
None
################### Fitting model...  ###################
2021-12-12 01:49:04.695171: W tensorflow/core/framework/cpu_allocator_impl.cc:82] Allocation of 8630370000 exceeds 10% of free system memory.
…
